…
Epoch: Final score Digits on test set - only output train - Loss of: 0.6624828313021052 - Classification Error of: 16.10738182067871
Epoch: Final score Digits on test set- baseline - Loss of: 0.5432893824523994 - Classification Error of: 10.067113876342773
Epoch: Final score Digits on test set- with evolution - Loss of: 0.7357723760924884 - Classification Error of: 17.449665069580078
-----------------------------------------------------------------------
      Layer (type)         Input Shape         Param #     Tr. Param #
=======================================================================
          Linear-1            [1, 128]          16,512          16,512
            Tanh-2            [1, 128]               0               0
          Linear-3            [1, 192]          24,704          24,704
            ReLU-4            [1, 128]               0               0
          Linear-5            [1, 192]          24,704          24,704
            ReLU-6            [1, 128]               0               0
          Linear-7            [1, 192]          24,704          24,704
            ReLU-8            [1, 128]               0               0
          Linear-9            [1, 192]          24,704          24,704
           ReLU-10            [1, 128]               0               0
         Linear-11            [1, 192]          24,704          24,704
           ReLU-12            [1, 128]               0               0
         Linear-13            [1, 192]           1,930           1,930
     LogSoftmax-14             [1, 10]               0               0
=======================================================================
Total params: 141,962
Trainable params: 141,962
Non-trainable params: 0
-----------------------------------------------------------------------
-----------------------------------------------------------------------
      Layer (type)         Input Shape         Param #     Tr. Param #
=======================================================================
          Linear-1             [1, 64]           8,320               0
            Tanh-2            [1, 128]               0               0
          Linear-3            [1, 128]          16,512               0
          Linear-4             [1, 64]           8,320               0
            ReLU-5            [1, 128]               0               0
          Linear-6            [1, 128]          16,512               0
          Linear-7             [1, 64]           8,320               0
            ReLU-8            [1, 128]               0               0
          Linear-9            [1, 128]          16,512               0
         Linear-10             [1, 64]           8,320               0
           ReLU-11            [1, 128]               0               0
         Linear-12            [1, 128]          16,512               0
         Linear-13             [1, 64]           8,320               0
           ReLU-14            [1, 128]               0               0
         Linear-15            [1, 128]          16,512               0
         Linear-16             [1, 64]           8,320               0
           ReLU-17            [1, 128]               0               0
         Linear-18            [1, 128]           1,290           1,290
     LogSoftmax-19             [1, 10]               0               0
=======================================================================
Total params: 133,770
Trainable params: 1,290
Non-trainable params: 132,480
-----------------------------------------------------------------------

Execution time was: (hours:minute:seconds:microseconds) 0:24:23.688808 

