…
Best val loss reservoir RNN: 0.1267022568838937
Worst val loss reservoir RNN: 0.2637002386365618
Mean Last population reservoir RNN: 5.245714282989502, std: 1.0493925321961974



Best val loss EA reservoir RNN: 0.07430484771728516
Worst val loss EA reservoir RNN: 0.07545911516462053
Mean Last population reservoir RNN: 1.4171428871154785, std: 0.05714287757873535


-----------------------------------------------------------------------
      Layer (type)         Input Shape         Param #     Tr. Param #
=======================================================================
          Linear-1            [1, 128]          16,512          16,512
            Tanh-2            [1, 128]               0               0
          Linear-3            [1, 192]          24,704          24,704
            ReLU-4            [1, 128]               0               0
          Linear-5            [1, 192]          24,704          24,704
            ReLU-6            [1, 128]               0               0
          Linear-7            [1, 192]          24,704          24,704
            ReLU-8            [1, 128]               0               0
          Linear-9            [1, 192]          24,704          24,704
           ReLU-10            [1, 128]               0               0
         Linear-11            [1, 192]          24,704          24,704
           ReLU-12            [1, 128]               0               0
         Linear-13            [1, 192]           1,930           1,930
     LogSoftmax-14             [1, 10]               0               0
=======================================================================
Total params: 141,962
Trainable params: 141,962
Non-trainable params: 0
-----------------------------------------------------------------------
-----------------------------------------------------------------------
      Layer (type)         Input Shape         Param #     Tr. Param #
=======================================================================
          Linear-1             [1, 64]           8,320               0
            Tanh-2            [1, 128]               0               0
          Linear-3            [1, 128]          16,512               0
          Linear-4             [1, 64]           8,320               0
            ReLU-5            [1, 128]               0               0
          Linear-6            [1, 128]          16,512               0
          Linear-7             [1, 64]           8,320               0
            ReLU-8            [1, 128]               0               0
          Linear-9            [1, 128]          16,512               0
         Linear-10             [1, 64]           8,320               0
           ReLU-11            [1, 128]               0               0
         Linear-12            [1, 128]          16,512               0
         Linear-13             [1, 64]           8,320               0
           ReLU-14            [1, 128]               0               0
         Linear-15            [1, 128]          16,512               0
         Linear-16             [1, 64]           8,320               0
           ReLU-17            [1, 128]               0               0
         Linear-18            [1, 128]           1,290           1,290
     LogSoftmax-19             [1, 10]               0               0
=======================================================================
Total params: 133,770
Trainable params: 1,290
Non-trainable params: 132,480
-----------------------------------------------------------------------

Execution time was: (hours:minute:seconds:microseconds) 0:00:00.924390 

